…
112, 64  0           ['conv1_bn[0][0]']               \r\n                                )                                                                 \r\n                                                                                                  \r\n pool1_pad (ZeroPadding2D)      (None, 114, 114, 64  0           ['conv1_relu[0][0]']             \r\n                                )                                                                 \r\n                                                                                                  \r\n pool1_pool (MaxPooling2D)      (None, 56, 56, 64)   0           ['pool1_pad[0][0]']              \r\n                                                                                                  \r\n conv2_block1_1_conv (Conv2D)   (None, 56, 56, 64)   36928       ['pool1_pool[0][0]']             \r\n                                                                                                  \r\n conv2_block1_1_bn (BatchNormal  (None, 56, 56, 64)  256         ['conv2_block1_1_conv[0][0]']    \r\n ization)                                                                                         \r\n                                                                                                  \r\n conv2_block1_1_relu (Activatio  (None, 56, 56, 64)  0           ['conv2_block1_1_bn[0][0]']      \r\n n)                                                                                               \r\n                                                                                                  \r\n conv2_block1_0_conv (Conv2D)   (None, 56, 56, 64)   4160        ['pool1_pool[0][0]']             \r\n                                                                                                  \r\n conv2_block1_2_conv (Conv2D)   (None, 56, 56, 64)   36928       ['conv2_block1_1_relu[0][0]']    \r\n                                                                                                  \r\n conv2_block1_0_bn (BatchNormal  (None, 56, 56, 64)  256         ['conv2_block1_0_conv[0][0]']    \r\n ization)                                                                                         \r\n                                                                                                  \r\n conv2_block1_2_bn (BatchNormal  (None, 56, 56, 64)  256         ['conv2_block1_2_conv[0][0]']    \r\n ization)                                                                                         \r\n                                                                                                  \r\n conv2_block1_add (Add)         (None, 56, 56, 64)   0           ['conv2_block1_0_bn[0][0]',      \r\n                                                                  'conv2_block1_2_bn[0][0]']      \r\n                                                                                                  \r\n conv2_block1_out (Activation)  (None, 56, 56, 64)   0           ['conv2_block1_add[0][0]']       \r\n                                                                                                  \r\n conv2_block2_1_conv (Conv2D)   (None, 56, 56, 64)   36928       ['conv2_block1_out[0][0]']       \r\n                                                                                                  \r\n conv2_block2_1_bn (BatchNormal  (None, 56, 56, 64)  256         ['conv2_block2_1_conv[0][0]']    \r\n ization)                                                                                         \r\n                                                                                                  \r\n conv2_block2_1_relu (Activatio  (None, 56, 56, 64)  0           ['conv2_block2_1_bn[0][0]']      \r\n n)                                                                                               \r\n                                                                                                  \r\n conv2_block2_2_conv (Conv2D)   (None, 56, 56, 64)   36928       ['conv2_block2_1_relu[0][0]']    \r\n                                                                                                  \r\n conv2_block2_2_bn (BatchNormal  (None, 56, 56, 64)  256         ['conv2_block2_2_conv[0][0]']    \r\n ization)                                                                                         \r\n                                                                                                  \r\n conv2_block2_add (Add)         (None, 56, 56, 64)   0           ['conv2_block1_out[0][0]',       \r\n                                                                  'conv2_block2_2_bn[0][0]']      \r\n                                                                                                  \r\n conv2_block2_out (Activation)  (None, 56, 56, 64)   0           ['conv2_block2_add[0][0]']       \r\n                                                                                                  \r\n conv3_block1_1_conv (Conv2D)   (None, 28, 28, 128)  73856       ['conv2_block2_out[0][0]']       \r\n                                                                                                  \r\n conv3_block1_1_bn (BatchNormal  (None, 28, 28, 128)  512        ['conv3_block1_1_conv[0][0]']    \r\n ization)                                                                                         \r\n                                                                                                  \r\n conv3_block1_1_relu (Activatio  (None, 28, 28, 128)  0          ['conv3_block1_1_bn[0][0]']      \r\n n)                                                                                               \r\n                                                                                                  \r\n conv3_block1_0_conv (Conv2D)   (None, 28, 28, 128)  8320        ['conv2_block2_out[0][0]']       \r\n                                                                                                  \r\n conv3_block1_2_conv (Conv2D)   (None, 28, 28, 128)  147584      ['conv3_block1_1_relu[0][0]']    \r\n                                                                                                  \r\n conv3_block1_0_bn (BatchNormal  (None, 28, 28, 128)  512        ['conv3_block1_0_conv[0][0]']    \r\n ization)                                                                                         \r\n                                                                                                  \r\n conv3_block1_2_bn (BatchNormal  (None, 28, 28, 128)  512        ['conv3_block1_2_conv[0][0]']    \r\n ization)                                                                                         \r\n                                                                                                  \r\n conv3_block1_add (Add)         (None, 28, 28, 128)  0           ['conv3_block1_0_bn[0][0]',      \r\n                                                                  'conv3_block1_2_bn[0][0]']      \r\n                                                                                                  \r\n conv3_block1_out (Activation)  (None, 28, 28, 128)  0           ['conv3_block1_add[0][0]']       \r\n                                                                                                  \r\n conv3_block2_1_conv (Conv2D)   (None, 28, 28, 128)  147584      ['conv3_block1_out[0][0]']       \r\n                                                                                                  \r\n conv3_block2_1_bn (BatchNormal  (None, 28, 28, 128)  512        ['conv3_block2_1_conv[0][0]']    \r\n ization)                                                                                         \r\n                                                                                                  \r\n conv3_block2_1_relu (Activatio  (None, 28, 28, 128)  0          ['conv3_block2_1_bn[0][0]']      \r\n n)                                                                                               \r\n                                                                                                  \r\n conv3_block2_2_conv (Conv2D)   (None, 28, 28, 128)  147584      ['conv3_block2_1_relu[0][0]']    \r\n                                                                                                  \r\n conv3_block2_2_bn (BatchNormal  (None, 28, 28, 128)  512        ['conv3_block2_2_conv[0][0]']    \r\n ization)                                                                                         \r\n                                                                                                  \r\n conv3_block2_add (Add)         (None, 28, 28, 128)  0           ['conv3_block1_out[0][0]',       \r\n                                                                  'conv3_block2_2_bn[0][0]']      \r\n                                                                                                  \r\n conv3_block2_out (Activation)  (None, 28, 28, 128)  0           ['conv3_block2_add[0][0]']       \r\n                                                                                                  \r\n conv4_block1_1_conv (Conv2D)   (None, 14, 14, 256)  295168      ['conv3_block2_out[0][0]']       \r\n                                                                                                  \r\n conv4_block1_1_bn (BatchNormal  (None, 14, 14, 256)  1024       ['conv4_block1_1_conv[0][0]']    \r\n ization)                                                                                         \r\n                                                                                                  \r\n conv4_block1_1_relu (Activatio  (None, 14, 14, 256)  0          ['conv4_block1_1_bn[0][0]']      \r\n n)                                                                                               \r\n                                                                                                  \r\n conv4_block1_0_conv (Conv2D)   (None, 14, 14, 256)  33024       ['conv3_block2_out[0][0]']       \r\n                                                                                                  \r\n conv4_block1_2_conv (Conv2D)   (None, 14, 14, 256)  590080      ['conv4_block1_1_relu[0][0]']    \r\n                                                                                                  \r\n conv4_block1_0_bn (BatchNormal  (None, 14, 14, 256)  1024       ['conv4_block1_0_conv[0][0]']    \r\n ization)                                                                                         \r\n                                                                                                  \r\n conv4_block1_2_bn (BatchNormal  (None, 14, 14, 256)  1024       ['conv4_block1_2_conv[0][0]']    \r\n ization)                                                                                         \r\n                                                                                                  \r\n conv4_block1_add (Add)         (None, 14, 14, 256)  0           ['conv4_block1_0_bn[0][0]',      \r\n                                                                  'conv4_block1_2_bn[0][0]']      \r\n                                                                                                  \r\n conv4_block1_out (Activation)  (None, 14, 14, 256)  0           ['conv4_block1_add[0][0]']       \r\n                                                                                                  \r\n conv4_block2_1_conv (Conv2D)   (None, 14, 14, 256)  590080      ['conv4_block1_out[0][0]']       \r\n                                                                                                  \r\n conv4_block2_1_bn (BatchNormal  (None, 14, 14, 256)  1024       ['conv4_block2_1_conv[0][0]']    \r\n ization)                                                                                         \r\n                                                                                                  \r\n conv4_block2_1_relu (Activatio  (None, 14, 14, 256)  0          ['conv4_block2_1_bn[0][0]']      \r\n n)                                                                                               \r\n                                                                                                  \r\n conv4_block2_2_conv (Conv2D)   (None, 14, 14, 256)  590080      ['conv4_block2_1_relu[0][0]']    \r\n                                                                                                  \r\n conv4_block2_2_bn (BatchNormal  (None, 14, 14, 256)  1024       ['conv4_block2_2_conv[0][0]']    \r\n ization)                                                                                         \r\n                                                                                                  \r\n conv4_block2_add (Add)         (None, 14, 14, 256)  0           ['conv4_block1_out[0][0]',       \r\n                                                                  'conv4_block2_2_bn[0][0]']      \r\n                                                                                                  \r\n conv4_block2_out (Activation)  (None, 14, 14, 256)  0           ['conv4_block2_add[0][0]']       \r\n                                                                                                  \r\n conv5_block1_1_conv (Conv2D)   (None, 7, 7, 512)    1180160     ['conv4_block2_out[0][0]']       \r\n                                                                                                  \r\n conv5_block1_1_bn (BatchNormal  (None, 7, 7, 512)   2048        ['conv5_block1_1_conv[0][0]']    \r\n ization)                                                                                         \r\n                                                                                                  \r\n conv5_block1_1_relu (Activatio  (None, 7, 7, 512)   0           ['conv5_block1_1_bn[0][0]']      \r\n n)                                                                                               \r\n                                                                                                  \r\n conv5_block1_0_conv (Conv2D)   (None, 7, 7, 512)    131584      ['conv4_block2_out[0][0]']       \r\n                                                                                                  \r\n conv5_block1_2_conv (Conv2D)   (None, 7, 7, 512)    2359808     ['conv5_block1_1_relu[0][0]']    \r\n                                                                                                  \r\n conv5_block1_0_bn (BatchNormal  (None, 7, 7, 512)   2048        ['conv5_block1_0_conv[0][0]']    \r\n ization)                                                                                         \r\n                                                                                                  \r\n conv5_block1_2_bn (BatchNormal  (None, 7, 7, 512)   2048        ['conv5_block1_2_conv[0][0]']    \r\n ization)                                                                                         \r\n                                                                                                  \r\n conv5_block1_add (Add)         (None, 7, 7, 512)    0           ['conv5_block1_0_bn[0][0]',      \r\n                                                                  'conv5_block1_2_bn[0][0]']      \r\n                                                                                                  \r\n conv5_block1_out (Activation)  (None, 7, 7, 512)    0           ['conv5_block1_add[0][0]']       \r\n                                                                                                  \r\n conv5_block2_1_conv (Conv2D)   (None, 7, 7, 512)    2359808     ['conv5_block1_out[0][0]']       \r\n                                                                                                  \r\n conv5_block2_1_bn (BatchNormal  (None, 7, 7, 512)   2048        ['conv5_block2_1_conv[0][0]']    \r\n ization)                                                                                         \r\n                                                                                                  \r\n conv5_block2_1_relu (Activatio  (None, 7, 7, 512)   0           ['conv5_block2_1_bn[0][0]']      \r\n n)                                                                                               \r\n                                                                                                  \r\n conv5_block2_2_conv (Conv2D)   (None, 7, 7, 512)    2359808     ['conv5_block2_1_relu[0][0]']    \r\n                                                                                                  \r\n conv5_block2_2_bn (BatchNormal  (None, 7, 7, 512)   2048        ['conv5_block2_2_conv[0][0]']    \r\n ization)                                                                                         \r\n                                                                                                  \r\n conv5_block2_add (Add)         (None, 7, 7, 512)    0           ['conv5_block1_out[0][0]',       \r\n                                                                  'conv5_block2_2_bn[0][0]']      \r\n                                                                                                  \r\n conv5_block2_out (Activation)  (None, 7, 7, 512)    0           ['conv5_block2_add[0][0]']       \r\n                                                                                                  \r\n avg_pool (GlobalAveragePooling  (None, 512)         0           ['conv5_block2_out[0][0]']       \r\n 2D)                                                                                              \r\n                                                                                                  \r\n predictions (Dense)            (None, 1000)         513000      ['avg_pool[0][0]']               \r\n                                                                                                  \r\n==================================================================================================\r\nTotal params: 11,708,328\r\nTrainable params: 11,698,600\r\nNon-trainable params: 9,728\r\n______________________________________________________________
…
112, 64  0           ['conv1_bn[0][0]']               \r\n                                )                                                                 \r\n                                                                                                  \r\n pool1_pad (ZeroPadding2D)      (None, 114, 114, 64  0           ['conv1_relu[0][0]']             \r\n                                )                                                                 \r\n                                                                                                  \r\n pool1_pool (MaxPooling2D)      (None, 56, 56, 64)   0           ['pool1_pad[0][0]']              \r\n                                                                                                  \r\n conv2_block1_1_conv (Conv2D)   (None, 56, 56, 64)   36928       ['pool1_pool[0][0]']             \r\n                                                                                                  \r\n conv2_block1_1_bn (BatchNormal  (None, 56, 56, 64)  256         ['conv2_block1_1_conv[0][0]']    \r\n ization)                                                                                         \r\n                                                                                                  \r\n conv2_block1_1_relu (Activatio  (None, 56, 56, 64)  0           ['conv2_block1_1_bn[0][0]']      \r\n n)                                                                                               \r\n                                                                                                  \r\n conv2_block1_0_conv (Conv2D)   (None, 56, 56, 64)   4160        ['pool1_pool[0][0]']             \r\n                                                                                                  \r\n conv2_block1_2_conv (Conv2D)   (None, 56, 56, 64)   36928       ['conv2_block1_1_relu[0][0]']    \r\n                                                                                                  \r\n conv2_block1_0_bn (BatchNormal  (None, 56, 56, 64)  256         ['conv2_block1_0_conv[0][0]']    \r\n ization)                                                                                         \r\n                                                                                                  \r\n conv2_block1_2_bn (BatchNormal  (None, 56, 56, 64)  256         ['conv2_block1_2_conv[0][0]']    \r\n ization)                                                                                         \r\n                                                                                                  \r\n conv2_block1_add (Add)         (None, 56, 56, 64)   0           ['conv2_block1_0_bn[0][0]',      \r\n                                                                  'conv2_block1_2_bn[0][0]']      \r\n                                                                                                  \r\n conv2_block1_out (Activation)  (None, 56, 56, 64)   0           ['conv2_block1_add[0][0]']       \r\n                                                                                                  \r\n conv2_block2_1_conv (Conv2D)   (None, 56, 56, 64)   36928       ['conv2_block1_out[0][0]']       \r\n                                                                                                  \r\n conv2_block2_1_bn (BatchNormal  (None, 56, 56, 64)  256         ['conv2_block2_1_conv[0][0]']    \r\n ization)                                                                                         \r\n                                                                                                  \r\n conv2_block2_1_relu (Activatio  (None, 56, 56, 64)  0           ['conv2_block2_1_bn[0][0]']      \r\n n)                                                                                               \r\n                                                                                                  \r\n conv2_block2_2_conv (Conv2D)   (None, 56, 56, 64)   36928       ['conv2_block2_1_relu[0][0]']    \r\n                                                                                                  \r\n conv2_block2_2_bn (BatchNormal  (None, 56, 56, 64)  256         ['conv2_block2_2_conv[0][0]']    \r\n ization)                                                                                         \r\n                                                                                                  \r\n conv2_block2_add (Add)         (None, 56, 56, 64)   0           ['conv2_block1_out[0][0]',       \r\n                                                                  'conv2_block2_2_bn[0][0]']      \r\n                                                                                                  \r\n conv2_block2_out (Activation)  (None, 56, 56, 64)   0           ['conv2_block2_add[0][0]']       \r\n                                                                                                  \r\n conv2_block3_1_conv (Conv2D)   (None, 56, 56, 64)   36928       ['conv2_block2_out[0][0]']       \r\n                                                                                                  \r\n conv2_block3_1_bn (BatchNormal  (None, 56, 56, 64)  256         ['conv2_block3_1_conv[0][0]']    \r\n ization)                                                                                         \r\n                                                                                                  \r\n conv2_block3_1_relu (Activatio  (None, 56, 56, 64)  0           ['conv2_block3_1_bn[0][0]']      \r\n n)                                                                                               \r\n                                                                                                  \r\n conv2_block3_2_conv (Conv2D)   (None, 56, 56, 64)   36928       ['conv2_block3_1_relu[0][0]']    \r\n                                                                                                  \r\n conv2_block3_2_bn (BatchNormal  (None, 56, 56, 64)  256         ['conv2_block3_2_conv[0][0]']    \r\n ization)                                                                                         \r\n                                                                                                  \r\n conv2_block3_add (Add)         (None, 56, 56, 64)   0           ['conv2_block2_out[0][0]',       \r\n                                                                  'conv2_block3_2_bn[0][0]']      \r\n                                                                                                  \r\n conv2_block3_out (Activation)  (None, 56, 56, 64)   0           ['conv2_block3_add[0][0]']       \r\n                                                                                                  \r\n conv3_block1_1_conv (Conv2D)   (None, 28, 28, 128)  73856       ['conv2_block3_out[0][0]']       \r\n                                                                                                  \r\n conv3_block1_1_bn (BatchNormal  (None, 28, 28, 128)  512        ['conv3_block1_1_conv[0][0]']    \r\n ization)                                                                                         \r\n                                                                                                  \r\n conv3_block1_1_relu (Activatio  (None, 28, 28, 128)  0          ['conv3_block1_1_bn[0][0]']      \r\n n)                                                                                               \r\n                                                                                                  \r\n conv3_block1_0_conv (Conv2D)   (None, 28, 28, 128)  8320        ['conv2_block3_out[0][0]']       \r\n                                                                                                  \r\n conv3_block1_2_conv (Conv2D)   (None, 28, 28, 128)  147584      ['conv3_block1_1_relu[0][0]']    \r\n                                                                                                  \r\n conv3_block1_0_bn (BatchNormal  (None, 28, 28, 128)  512        ['conv3_block1_0_conv[0][0]']    \r\n ization)                                                                                         \r\n                                                                                                  \r\n conv3_block1_2_bn (BatchNormal  (None, 28, 28, 128)  512        ['conv3_block1_2_conv[0][0]']    \r\n ization)                                                                                         \r\n                                                                                                  \r\n conv3_block1_add (Add)         (None, 28, 28, 128)  0           ['conv3_block1_0_bn[0][0]',      \r\n                                                                  'conv3_block1_2_bn[0][0]']      \r\n                                                                                                  \r\n conv3_block1_out (Activation)  (None, 28, 28, 128)  0           ['conv3_block1_add[0][0]']       \r\n                                                                                                  \r\n conv3_block2_1_conv (Conv2D)   (None, 28, 28, 128)  147584      ['conv3_block1_out[0][0]']       \r\n                                                                                                  \r\n conv3_block2_1_bn (BatchNormal  (None, 28, 28, 128)  512        ['conv3_block2_1_conv[0][0]']    \r\n ization)                                                                                         \r\n                                                                                                  \r\n conv3_block2_1_relu (Activatio  (None, 28, 28, 128)  0          ['conv3_block2_1_bn[0][0]']      \r\n n)                                                                                               \r\n                                                                                                  \r\n conv3_block2_2_conv (Conv2D)   (None, 28, 28, 128)  147584      ['conv3_block2_1_relu[0][0]']    \r\n                                                                                                  \r\n conv3_block2_2_bn (BatchNormal  (None, 28, 28, 128)  512        ['conv3_block2_2_conv[0][0]']    \r\n ization)                                                                                         \r\n                                                                                                  \r\n conv3_block2_add (Add)         (None, 28, 28, 128)  0           ['conv3_block1_out[0][0]',       \r\n                                                                  'conv3_block2_2_bn[0][0]']      \r\n                                                                                                  \r\n conv3_block2_out (Activation)  (None, 28, 28, 128)  0           ['conv3_block2_add[0][0]']       \r\n                                                                                                  \r\n conv3_block3_1_conv (Conv2D)   (None, 28, 28, 128)  147584      ['conv3_block2_out[0][0]']       \r\n                                                                                                  \r\n conv3_block3_1_bn (BatchNormal  (None, 28, 28, 128)  512        ['conv3_block3_1_conv[0][0]']    \r\n ization)                                                                                         \r\n                                                                                                  \r\n conv3_block3_1_relu (Activatio  (None, 28, 28, 128)  0          ['conv3_block3_1_bn[0][0]']      \r\n n)                                                                                               \r\n                                                                                                  \r\n conv3_block3_2_conv (Conv2D)   (None, 28, 28, 128)  147584      ['conv3_block3_1_relu[0][0]']    \r\n                                                                                                  \r\n conv3_block3_2_bn (BatchNormal  (None, 28, 28, 128)  512        ['conv3_block3_2_conv[0][0]']    \r\n ization)                                                                                         \r\n                                                                                                  \r\n conv3_block3_add (Add)         (None, 28, 28, 128)  0           ['conv3_block2_out[0][0]',       \r\n                                                                  'conv3_block3_2_bn[0][0]']      \r\n                                                                                                  \r\n conv3_block3_out (Activation)  (None, 28, 28, 128)  0           ['conv3_block3_add[0][0]']       \r\n                                                                                                  \r\n conv3_block4_1_conv (Conv2D)   (None, 28, 28, 128)  147584      ['conv3_block3_out[0][0]']       \r\n                                                                                                  \r\n conv3_block4_1_bn (BatchNormal  (None, 28, 28, 128)  512        ['conv3_block4_1_conv[0][0]']    \r\n ization)                                                                                         \r\n                                                                                                  \r\n conv3_block4_1_relu (Activatio  (None, 28, 28, 128)  0          ['conv3_block4_1_bn[0][0]']      \r\n n)                                                                                               \r\n                                                                                                  \r\n conv3_block4_2_conv (Conv2D)   (None, 28, 28, 128)  147584      ['conv3_block4_1_relu[0][0]']    \r\n                                                                                                  \r\n conv3_block4_2_bn (BatchNormal  (None, 28, 28, 128)  512        ['conv3_block4_2_conv[0][0]']    \r\n ization)                                                                                         \r\n                                                                                                  \r\n conv3_block4_add (Add)         (None, 28, 28, 128)  0           ['conv3_block3_out[0][0]',       \r\n                                                                  'conv3_block4_2_bn[0][0]']      \r\n                                                                                                  \r\n conv3_block4_out (Activation)  (None, 28, 28, 128)  0           ['conv3_block4_add[0][0]']       \r\n                                                                                                  \r\n conv4_block1_1_conv (Conv2D)   (None, 14, 14, 256)  295168      ['conv3_block4_out[0][0]']       \r\n                                                                                                  \r\n conv4_block1_1_bn (BatchNormal  (None, 14, 14, 256)  1024       ['conv4_block1_1_conv[0][0]']    \r\n ization)                                                                                         \r\n                                                                                                  \r\n conv4_block1_1_relu (Activatio  (None, 14, 14, 256)  0          ['conv4_block1_1_bn[0][0]']      \r\n n)                                                                                               \r\n                                                                                                  \r\n conv4_block1_0_conv (Conv2D)   (None, 14, 14, 256)  33024       ['conv3_block4_out[0][0]']       \r\n                                                                                                  \r\n conv4_block1_2_conv (Conv2D)   (None, 14, 14, 256)  590080      ['conv4_block1_1_relu[0][0]']    \r\n                                                                                                  \r\n conv4_block1_0_bn (BatchNormal  (None, 14, 14, 256)  1024       ['conv4_block1_0_conv[0][0]']    \r\n ization)                                                                                         \r\n                                                                                                  \r\n conv4_block1_2_bn (BatchNormal  (None, 14, 14, 256)  1024       ['conv4_block1_2_conv[0][0]']    \r\n ization)                                                                                         \r\n                                                                                                  \r\n conv4_block1_add (Add)         (None, 14, 14, 256)  0           ['conv4_block1_0_bn[0][0]',      \r\n                                                                  'conv4_block1_2_bn[0][0]']      \r\n                                                                                                  \r\n conv4_block1_out (Activation)  (None, 14, 14, 256)  0           ['conv4_block1_add[0][0]']       \r\n                                                                                                  \r\n conv4_block2_1_conv (Conv2D)   (None, 14, 14, 256)  590080      ['conv4_block1_out[0][0]']       \r\n                                                                                                  \r\n conv4_block2_1_bn (BatchNormal  (None, 14, 14, 256)  1024       ['conv4_block2_1_conv[0][0]']    \r\n ization)                                                                                         \r\n                                                                                                  \r\n conv4_block2_1_relu (Activatio  (None, 14, 14, 256)  0          ['conv4_block2_1_bn[0][0]']      \r\n n)                                                                                               \r\n                                                                                                  \r\n conv4_block2_2_conv (Conv2D)   (None, 14, 14, 256)  590080      ['conv4_block2_1_relu[0][0]']    \r\n                                                                                                  \r\n conv4_block2_2_bn (BatchNormal  (None, 14, 14, 256)  1024       ['conv4_block2_2_conv[0][0]']    \r\n ization)                                                                                         \r\n                                                                                                  \r\n conv4_block2_add (Add)         (None, 14, 14, 256)  0           ['conv4_block1_out[0][0]',       \r\n                                                                  'conv4_block2_2_bn[0][0]']      \r\n                                                                                                  \r\n conv4_block2_out (Activation)  (None, 14, 14, 256)  0           ['conv4_block2_add[0][0]']       \r\n                                                                                                  \r\n conv4_block3_1_conv (Conv2D)   (None, 14, 14, 256)  590080      ['conv4_block2_out[0][0]']       \r\n                                                                                                  \r\n conv4_block3_1_bn (BatchNormal  (None, 14, 14, 256)  1024       ['conv4_block3_1_conv[0][0]']    \r\n ization)                                                                                         \r\n                                                                                                  \r\n conv4_block3_1_relu (Activatio  (None, 14, 14, 256)  0          ['conv4_block3_1_bn[0][0]']      \r\n n)                                                                                               \r\n                                                                                                  \r\n conv4_block3_2_conv (Conv2D)   (None, 14, 14, 256)  590080      ['conv4_block3_1_relu[0][0]']    \r\n                                                                                                  \r\n conv4_block3_2_bn (BatchNormal  (None, 14, 14, 256)  1024       ['conv4_block3_2_conv[0][0]']    \r\n ization)                                                                                         \r\n                                                                                                  \r\n conv4_block3_add (Add)         (None, 14, 14, 256)  0           ['conv4_block2_out[0][0]',       \r\n                                                                  'conv4_block3_2_bn[0][0]']      \r\n                                                                                                  \r\n conv4_block3_out (Activation)  (None, 14, 14, 256)  0           ['conv4_block3_add[0][0]']       \r\n                                                                                                  \r\n conv4_block4_1_conv (Conv2D)   (None, 14, 14, 256)  590080      ['conv4_block3_out[0][0]']       \r\n                                                                                                  \r\n conv4_block4_1_bn (BatchNormal  (None, 14, 14, 256)  1024       ['conv4_block4_1_conv[0][0]']    \r\n ization)                                                                                         \r\n                                                                                                  \r\n conv4_block4_1_relu (Activatio  (None, 14, 14, 256)  0          ['conv4_block4_1_bn[0][0]']      \r\n n)                                                                                               \r\n                                                                                                  \r\n conv4_block4_2_conv (Conv2D)   (None, 14, 14, 256)  590080      ['conv4_block4_1_relu[0][0]']    \r\n                                                                                                  \r\n conv4_block4_2_bn (BatchNormal  (None, 14, 14, 256)  1024       ['conv4_block4_2_conv[0][0]']    \r\n ization)                                                                                         \r\n                                                                                                  \r\n conv4_block4_add (Add)         (None, 14, 14, 256)  0           ['conv4_block3_out[0][0]',       \r\n                                                                  'conv4_block4_2_bn[0][0]']      \r\n                                                                                                  \r\n conv4_block4_out (Activation)  (None, 14, 14, 256)  0           ['conv4_block4_add[0][0]']       \r\n                                                                                                  \r\n conv4_block5_1_conv (Conv2D)   (None, 14, 14, 256)  590080      ['conv4_block4_out[0][0]']       \r\n                                                                                                  \r\n conv4_block5_1_bn (BatchNormal  (None, 14, 14, 256)  1024       ['conv4_block5_1_conv[0][0]']    \r\n ization)                                                                                         \r\n                                                                                                  \r\n conv4_block5_1_relu (Activatio  (None, 14, 14, 256)  0          ['conv4_block5_1_bn[0][0]']      \r\n n)                                                                                               \r\n                                                                                                  \r\n conv4_block5_2_conv (Conv2D)   (None, 14, 14, 256)  590080      ['conv4_block5_1_relu[0][0]']    \r\n                                                                                                  \r\n conv4_block5_2_bn (BatchNormal  (None, 14, 14, 256)  1024       ['conv4_block5_2_conv[0][0]']    \r\n ization)                                                                                         \r\n                                                                                                  \r\n conv4_block5_add (Add)         (None, 14, 14, 256)  0           ['conv4_block4_out[0][0]',       \r\n                                                                  'conv4_block5_2_bn[0][0]']      \r\n                                                                                                  \r\n conv4_block5_out (Activation)  (None, 14, 14, 256)  0           ['conv4_block5_add[0][0]']       \r\n                                                                                                  \r\n conv4_block6_1_conv (Conv2D)   (None, 14, 14, 256)  590080      ['conv4_block5_out[0][0]']       \r\n                                                                                                  \r\n conv4_block6_1_bn (BatchNormal  (None, 14, 14, 256)  1024       ['conv4_block6_1_conv[0][0]']    \r\n ization)                                                                                         \r\n                                                                                                  \r\n conv4_block6_1_relu (Activatio  (None, 14, 14, 256)  0          ['conv4_block6_1_bn[0][0]']      \r\n n)                                                                                               \r\n                                                                                                  \r\n conv4_block6_2_conv (Conv2D)   (None, 14, 14, 256)  590080      ['conv4_block6_1_relu[0][0]']    \r\n                                                                                                  \r\n conv4_block6_2_bn (BatchNormal  (None, 14, 14, 256)  1024       ['conv4_block6_2_conv[0][0]']    \r\n ization)                                                                                         \r\n                                                                                                  \r\n conv4_block6_add (Add)         (None, 14, 14, 256)  0           ['conv4_block5_out[0][0]',       \r\n                                                                  'conv4_block6_2_bn[0][0]']      \r\n                                                                                                  \r\n conv4_block6_out (Activation)  (None, 14, 14, 256)  0           ['conv4_block6_add[0][0]']       \r\n                                                                                                  \r\n conv5_block1_1_conv (Conv2D)   (None, 7, 7, 512)    1180160     ['conv4_block6_out[0][0]']       \r\n                                                                                                  \r\n conv5_block1_1_bn (BatchNormal  (None, 7, 7, 512)   2048        ['conv5_block1_1_conv[0][0]']    \r\n ization)                                                                                         \r\n                                                                                                  \r\n conv5_block1_1_relu (Activatio  (None, 7, 7, 512)   0           ['conv5_block1_1_bn[0][0]']      \r\n n)                                                                                               \r\n                                                                                                  \r\n conv5_block1_0_conv (Conv2D)   (None, 7, 7, 512)    131584      ['conv4_block6_out[0][0]']       \r\n                                                                                                  \r\n conv5_block1_2_conv (Conv2D)   (None, 7, 7, 512)    2359808     ['conv5_block1_1_relu[0][0]']    \r\n                                                                                                  \r\n conv5_block1_0_bn (BatchNormal  (None, 7, 7, 512)   2048        ['conv5_block1_0_conv[0][0]']    \r\n ization)                                                                                         \r\n                                                                                                  \r\n conv5_block1_2_bn (BatchNormal  (None, 7, 7, 512)   2048        ['conv5_block1_2_conv[0][0]']    \r\n ization)                                                                                         \r\n                                                                                                  \r\n conv5_block1_add (Add)         (None, 7, 7, 512)    0           ['conv5_block1_0_bn[0][0]',      \r\n                                                                  'conv5_block1_2_bn[0][0]']      \r\n                                                                                                  \r\n conv5_block1_out (Activation)  (None, 7, 7, 512)    0           ['conv5_block1_add[0][0]']       \r\n                                                                                                  \r\n conv5_block2_1_conv (Conv2D)   (None, 7, 7, 512)    2359808     ['conv5_block1_out[0][0]']       \r\n                                                                                                  \r\n conv5_block2_1_bn (BatchNormal  (None, 7, 7, 512)   2048        ['conv5_block2_1_conv[0][0]']    \r\n ization)                                                                                         \r\n                                                                                                  \r\n conv5_block2_1_relu (Activatio  (None, 7, 7, 512)   0           ['conv5_block2_1_bn[0][0]']      \r\n n)                                                                                               \r\n                                                                                                  \r\n conv5_block2_2_conv (Conv2D)   (None, 7, 7, 512)    2359808     ['conv5_block2_1_relu[0][0]']    \r\n                                                                                                  \r\n conv5_block2_2_bn (BatchNormal  (None, 7, 7, 512)   2048        ['conv5_block2_2_conv[0][0]']    \r\n ization)                                                                                         \r\n                                                                                                  \r\n conv5_block2_add (Add)         (None, 7, 7, 512)    0           ['conv5_block1_out[0][0]',       \r\n                                                                  'conv5_block2_2_bn[0][0]']      \r\n                                                                                                  \r\n conv5_block2_out (Activation)  (None, 7, 7, 512)    0           ['conv5_block2_add[0][0]']       \r\n                                                                                                  \r\n conv5_block3_1_conv (Conv2D)   (None, 7, 7, 512)    2359808     ['conv5_block2_out[0][0]']       \r\n                                                                                                  \r\n conv5_block3_1_bn (BatchNormal  (None, 7, 7, 512)   2048        ['conv5_block3_1_conv[0][0]']    \r\n ization)                                                                                         \r\n                                                                                                  \r\n conv5_block3_1_relu (Activatio  (None, 7, 7, 512)   0           ['conv5_block3_1_bn[0][0]']      \r\n n)                                                                                               \r\n                                                                                                  \r\n conv5_block3_2_conv (Conv2D)   (None, 7, 7, 512)    2359808     ['conv5_block3_1_relu[0][0]']    \r\n                                                                                                  \r\n conv5_block3_2_bn (BatchNormal  (None, 7, 7, 512)   2048        ['conv5_block3_2_conv[0][0]']    \r\n ization)                                                                                         \r\n                                                                                                  \r\n conv5_block3_add (Add)         (None, 7, 7, 512)    0           ['conv5_block2_out[0][0]',       \r\n                                                                  'conv5_block3_2_bn[0][0]']      \r\n                                                                                                  \r\n conv5_block3_out (Activation)  (None, 7, 7, 512)    0           ['conv5_block3_add[0][0]']       \r\n                                                                                                  \r\n avg_pool (GlobalAveragePooling  (None, 512)         0           ['conv5_block3_out[0][0]']       \r\n 2D)                                                                                              \r\n                                                                                                  \r\n predictions (Dense)            (None, 1000)         513000      ['avg_pool[0][0]']               \r\n                                                                                                  \r\n==================================================================================================\r\nTotal params: 21,827,624\r\nTrainable params: 21,810,472\r\nNon-trainable params: 17,152\r\n_____________________________________________________________
…
